2025-12-29 16:02:50,576 - INFO - ========== Model 信息 ==========
2025-12-29 16:02:50,576 - INFO - ImprovedTransformerModel(
  (pos_encoder): PositionalEncoding(
    (dropout): Dropout(p=0.1, inplace=False)
  )
  (input_fc_special): Sequential(
    (0): Linear(in_features=15, out_features=1024, bias=True)
  )
  (transformer_special): TransformerEncoder(
    (layers): ModuleList(
      (0-3): 4 x TransformerEncoderLayer(
        (self_attn): MultiheadAttention(
          (out_proj): NonDynamicallyQuantizableLinear(in_features=1024, out_features=1024, bias=True)
        )
        (linear1): Linear(in_features=1024, out_features=2048, bias=True)
        (dropout): Dropout(p=0.1, inplace=False)
        (linear2): Linear(in_features=2048, out_features=1024, bias=True)
        (norm1): LayerNorm((1024,), eps=1e-05, elementwise_affine=True)
        (norm2): LayerNorm((1024,), eps=1e-05, elementwise_affine=True)
        (dropout1): Dropout(p=0.1, inplace=False)
        (dropout2): Dropout(p=0.1, inplace=False)
      )
    )
  )
  (xyz_mlp): Sequential(
    (0): Linear(in_features=1024, out_features=512, bias=True)
    (1): ReLU()
    (2): Linear(in_features=512, out_features=3, bias=True)
  )
  (xyz_var_mlp): Sequential(
    (0): Linear(in_features=1024, out_features=512, bias=True)
    (1): ReLU()
    (2): Linear(in_features=512, out_features=3, bias=True)
  )
  (time_mlp): Sequential(
    (0): Linear(in_features=1024, out_features=512, bias=True)
    (1): ReLU()
    (2): Linear(in_features=512, out_features=1, bias=True)
  )
  (direction_mlp): Sequential(
    (0): Linear(in_features=1024, out_features=512, bias=True)
    (1): ReLU()
    (2): Linear(in_features=512, out_features=2, bias=True)
  )
)
2025-12-29 16:02:50,577 - INFO - ========== Config 信息 ==========
2025-12-29 16:02:50,577 - INFO - --data_folder: ../data/data_1217_infer_ball_ext5
2025-12-29 16:02:50,577 - INFO - --batch_size: 32
2025-12-29 16:02:50,577 - INFO - --lr: 2e-05
2025-12-29 16:02:50,577 - INFO - --epochs: 100
2025-12-29 16:02:50,577 - INFO - --model_dir: ./models\ImprovedTransformerModel
…
